…
pan class="line">14</span><br><span class="line">15</span><br><span class="line">16</span><br><span class="line">17</span><br><span class="line">18</span><br><span class="line">19</span><br><span class="line">20</span><br><span class="line">21</span><br><span class="line">22</span><br><span class="line">23</span><br><span class="line">24</span><br><span class="line">25</span><br><span class="line">26</span><br><span class="line">27</span><br><span class="line">28</span><br></pre></td><td class="code"><pre><code class="hljs txt">BlueLMForCausalLM(<br>  (model): BlueLMModel(<br>    (embed_tokens): Embedding(100096, 4096, padding_idx=3)<br>    (embed_layer_norm): LayerNorm((4096,), eps=1e-06, elementwise_affine=True)<br>    (layers): ModuleList(<br>      (0-31): 32 x BlueLMDecoderLayer(<br>        (self_attn): BlueLMAttention(<br>          (q_proj): Linear(in_features=4096, out_features=4096, bias=False)<br>          (k_proj): Linear(in_features=4096, out_features=4096, bias=False)<br>          (v_proj): Linear(in_features=4096, out_features=4096, bias=False)<br>          (o_proj): Linear(in_features=4096, out_features=4096, bias=False)<br>          (rotary_emb): BlueLMRotaryEmbedding()<br>        )<br>        (mlp): BlueLMMLP(<br>          (gate_proj): Linear(in_features=4096, out_features=11008, bias=False)<br>          (down_proj): Linear(in_features=11008, out_features=4096, bias=False)<br>          (up_proj): Linear(in_features=4096, out_features=11008, bias=False)<br>          (act_fn): SiLU()<br>          (dropout): Dropout(p=0, inplace=False)<br>        )<br>        (input_layernorm): BlueLMRMSNorm()<br>        (post_attention_layernorm): BlueLMRMSNorm()<br>      )<br>    )<br>    (norm): BlueLMRMSNorm()<br>  )<br>  (lm_head): Linear(in_features=4096, out_features=100096, bias=False)<br>)<br></code></pre></td></tr></table></figure><h2 id="归一化-embed">归一化 embed</h2><figure class="highlight python"><table><tr><td class="gutter"><pre><span class="line">1</span><br><span class="line">2</span><br><span class="line">3</span><br><span class="line">4</span><br><span class="line">5</span><br><span class="line">6</span><br><span class="l
…
pan class="line">13</span><br><span class="line">14</span><br><span class="line">15</span><br><span class="line">16</span><br><span class="line">17</span><br><span class="line">18</span><br><span class="line">19</span><br><span class="line">20</span><br><span class="line">21</span><br><span class="line">22</span><br><span class="line">23</span><br><span class="line">24</span><br><span class="line">25</span><br><span class="line">26</span><br><span class="line">27</span><br></pre></td><td class="code"><pre><code class="hljs txt">BlueLMForCausalLM(<br>  (model): BlueLMModel(<br>    (embed_tokens): Embedding(100096, 4096, padding_idx=3)<br>    (layers): ModuleList(<br>      (0-31): 32 x BlueLMDecoderLayer(<br>        (self_attn): BlueLMAttention(<br>          (q_proj): Linear(in_features=4096, out_features=4096, bias=False)<br>          (k_proj): Linear(in_features=4096, out_features=4096, bias=False)<br>          (v_proj): Linear(in_features=4096, out_features=4096, bias=False)<br>          (o_proj): Linear(in_features=4096, out_features=4096, bias=False)<br>          (rotary_emb): BlueLMRotaryEmbedding()<br>        )<br>        (mlp): BlueLMMLP(<br>          (gate_proj): Linear(in_features=4096, out_features=11008, bias=False)<br>          (down_proj): Linear(in_features=11008, out_features=4096, bias=False)<br>          (up_proj): Linear(in_features=4096, out_features=11008, bias=False)<br>          (act_fn): SiLU()<br>          (dropout): Dropout(p=0, inplace=False)<br>        )<br>        (input_layernorm): BlueLMRMSNorm()<br>        (post_attention_layernorm): BlueLMRMSNorm()<br>      )<br>    )<br>    (norm): BlueLMRMSNorm()<br>  )<br>  (lm_head): Linear(in_features=4096, out_features=100096, bias=False)<br>)<br></code></pre></td></tr></table></figure><h2 id="测试运行">测试运行</h2><figure class="highlight powershell"><table><tr><td class="gutter"><pre><span class="line">1</span><br><span class="line">2</span><br><span class="line">3</span><br><span class="line">4</span><br><span class="line">5</span><br><span class="line">6</span><br><span class="line">7
…
<br><span class="line">8</span><br><span class="line">9</span><br><span class="line">10</span><br><span class="line">11</span><br><span class="line">12</span><br><span class="line">13</span><br><span class="line">14</span><br><span class="line">15</span><br><span class="line">16</span><br><span class="line">17</span><br><span class="line">18</span><br><span class="line">19</span><br><span class="line">20</span><br><span class="line">21</span><br><span class="line">22</span><br><span class="line">23</span><br></pre></td><td class="code"><pre><code class="hljs txt">HelloGPT(<br>  (tok_embeddings): Embedding(32765, 768)<br>  (rotary_emb): RotaryEmbedding(head_dim=64, max_seq_len=1024)<br>  (layers): ModuleList(<br>    (0-11): 12 x Decoder(<br>      (ln1): RMSNorm(hidden_size=768, eps=1e-06)<br>      (attn): Attention(<br>        (q_proj): Linear(in_features=768, out_features=768, bias=False)<br>        (k_proj): Linear(in_features=768, out_features=768, bias=False)<br>        (v_proj): Linear(in_features=768, out_features=768, bias=False)<br>        (o_proj): Linear(in_features=768, out_features=768, bias=False)<br>      )<br>      (ln2): RMSNorm(hidden_size=768, eps=1e-06)<br>      (mlp): MLP(<br>        (gate_proj): Linear(in_features=768, out_features=1536, bias=False)<br>        (up_proj): Linear(in_features=768, out_features=1536, bias=False)<br>        (down_proj): Linear(in_features=1536, out_features=768, bias=False)<br>      )<br>    )<br>  )<br>  (norm): RMSNorm(hidden_size=768, eps=1e-06)<br>  (ln2): Linear(in_features=768, out_features=32765, bias=False)<br>)<br></code></pre></td></tr></table></figure><h2 id="配置环境">配置环境</h2><ul><li><a href="/-ji-lu--an-zhuang-conda-bing-geng-huan-qing-hua-yuan">安装conda</a></li></ul><figure class="highlight powershell"><table><tr><td class="gutter"><pre><span class="line">1</span><br><span class="line">2</span><br><span class="line">3</span><br><span class="line">4</
…
